trainedModel/mvModel.pt (torch, 686602 bytes, 5 tensors)

lstm.weight_ih_l0 f4 [800, 9]
00000000: 5ace 6ebc 4ad2 9a3d 8967 4dbd be3c 82bc
00000010: 161d 41ba ab6f c63b 3885 24bc 9a29 2f3d
00000020: 2a3a 703d 1f24 ba3c 3c66 793a 722f 25bd
00000030: 0aff fb3b 9606 89b9 0c22 693b 58bc 333d
00000040: 16f2 ed3c 7764 3fbd 3d2b f2bb 0e24 603d
00000050: 492b 69bd e6af 89bd e82d 9fbd b1dc 98bd
00000060: 5248 5b3d e1d6 7b3d f178 633d 27b3 06bd
00000070: bbc9 5abd 2540 c73b 4f35 29bd 013e 8cbd
00000080: c02f 8dbd 010b 02bd 3d64 44bd 96b9 c7ba
00000090: 873a b23c b5f7 1ebd 1917 bb3c b59c 523d
000000a0: a2ec 933c c97f 17bc cf55 b1bc 8982 3dbd
000000b0: 0249 d6bc 6c4c 553d f05b a0bc 0c61 9fbb
000000c0: a010 21bd c61c d639 27c0 d8bc 3efe e43c
000000d0: 8b36 79bd 2c74 273c 1df3 863d e903 10bc
000000e0: 92c0 2f3b 58ce 1ebd d6ad d93c 1704 13bc
000000f0: d279 ea3c d4e3 f03c 7606 773d 4c42 cf3c
00000100: 3a40 babc 5bab 4bbd 5f7c 023d 5a25 2f3d
00000110: dbef 773d 06fd 30bd fad6 7bbd 7d8b 0e3d
00000120: c49d 49bd f1ba e8bc e9a9 30bd d7ef e53c
00000130: 076a 8bbb b59e 273d ad6a f03c 3004 833d
00000140: 9407 a1bc 72e6 313d 091f 3a3d db91 6c3c
00000150: 3d87 733d 40ea 69ba 5203 703d 2ce9 b93c
00000160: 223e 5cbd 33f5 90bd 25bc e5bc 583b 7dbd
00000170: 6516 4d3d 5a8c 1a3b 8a40 d7bc 7528 42bd
00000180: 9658 8e3b 160e 12bd 3187 e7bc 22eb cbbc
00000190: d760 8bbd e51d 953d e94b 913d 6feb 263c
000001a0: 7942 50bd 2b4b 0b3d c8a7 ac3c 72f4 113d
000001b0: 13df 133d 2454 ccbc b888 0c3d 31b7 e1bc
000001c0: 406a 0a3d f1a0 53bd 0239 543d dbfc 543d
000001d0: 6a7d 803d c73e bfbc ce3c 8b3d ae46 04bd
000001e0: c132 cc3c a9a1 8bbc d0c6 a5bb 7b59 b7bb
000001f0: 36e1 7bbd b3c4 78bd 6547 3ebd 2fe3 693d
00000200: 0fbe 893d 5689 32bc 6b4f 963c 4f68 f8bb
00000210: 59fa 84bc 1ce6 4d3d 4a5b 43bc 5423 70bd
00000220: a42b b0bc 668c b73c 3d9b 8a3c 04db 013d
00000230: 585c 0b3d e73d 9a3d 5ef8 85bd cda0 babc
00000240: fecd 0fbc 6a78 99bd c9db 04bc 29b5 5ebd
00000250: b98e 16bc 9952 8bbc 19dd c93c c5fa 603c
00000260: 5a7c 69bd 1ddf 45bd 82d8 17bc f140 fbbc
00000270: a6b7 6dbd efee 1f3c be8f 6f3d 9fbb 03bc
00000280: 04e9 7a3b a1a6 c63c 5ca1 2b3d 7cc1 fabc
00000290: f3e2 683c c2ab 0dbd b557 10bd 210d afbc
000002a0: e76e a93c 1d36 cdbc 2600 e8bb f596 58bd
000002b0: 9a1f c33c 87eb 5dbd e3bf 413c 5e0c 323d
000002c0: 4498 29bd 5cda 5ebd a3c3 0fbb 0cc9 76bd
000002d0: 9427 a33d 1b22 653d 4785 a33d 1a3e 703d
000002e0: b44c 373d cd98 3a3d ac99 babc 132d 49bd
000002f0: 508e f6bb c76e fdbc a34e 7e3a 3e3c 8b3d
00000300: 8136 16bd 645c eabc e821 0fbd 853e edbb
00000310: 49b2 3bbd 7f62 cd3c 5a94 95bc 3873 693c
00000320: 0797 333d 5095 033d d571 053d ef56 5ebd
00000330: bb3c 23bd e503 713d 9a4b 783c 2124 103d
00000340: 363f 9e3d adcd 603d b9c4 debc c519 013d
00000350: 7441 963c a7ba 9f3c 0d0c 52bd 3716 863d
00000360: 1b6a 2a3d 1533 423d 6f3b 24bd 11ea 7dbd
00000370: a0b7 ab3b 3a25 903d 387c c23c 9110 c93b
00000380: 7806 ee3c 1019 bdbc 3c45 bb3c 42e1 61bd
00000390: 66fe 9cbd a87c 81bc 87e7 db3a 360a 5ebd
000003a0: 54af 42bd b705 acbc 7911 6b3d 66f8 373c
000003b0: aac4 26bd 110f 9f3c 2ce0 04bd 81da bfbc
000003c0: c72a 96bd 3d0f 383d 3485 26bd 16ee 8bbc
000003d0: b633 2fbd 1e9e ebbc 080f fd3c db6e df3c
000003e0: b8e1 b8bc c607 443d 2c91 163c 7ffc 24bc
000003f0: 21d9 383d aa9b c03c d379 a73b f46f 593d
-0.014575565 0.07559641 -0.050147567 -0.015898105 -0.00073667 0.0060557923 -0.010041527 0.042764284
0.05864922 0.022722302 0.00095138303 -0.04032845 0.007690315 -0.00026135583 0.0035573272 0.04388079
0.0290461 -0.04672667 -0.0073904083 0.054721884 -0.056926046 -0.06723003 -0.07772428 -0.074639685
0.053535767 0.06148422 0.05553526 -0.032885697 -0.05341504 0.0060806447 -0.041310605 -0.06847764
-0.06893873 -0.031748775 -0.047947157 -0.0015237804 0.021756424 -0.03881045 0.022838162 0.05141898
0.018057171 -0.009246775 -0.021647362 -0.046267066 -0.02615786 0.052074835 -0.01957509 -0.004863864
-0.039322495 0.000408387 -0.026458813 0.027953263 -0.06084303 0.010220569 0.06589339 -0.008789995
0.0026817662 -0.038771003 0.02657215 -0.008973143 0.028622542 0.029405512 0.060308896 0.025300168
-0.022735704 -0.049723964 0.03185689 0.04276023 0.06053148 -0.043210052 -0.061484315 0.034800995
-0.049222723 -0.028409453 -0.04313079 0.028068466 -0.004254583 0.04092284 0.029347742 0.06397283
-0.019656934 0.04343266 0.045439754 0.0144390715 0.059455145 -0.00089231506 0.058596916 0.022694193
-0.053770192 -0.07078018 -0.028043816 -0.061824173 0.050070185 0.0023582191 -0.026275892 -0.047401864
0.0043440564 -0.035657965 -0.028262706 -0.024892393 -0.0680558 0.072810926 0.07094557 0.010187968
-0.050844643 0.034007233 0.021076098 0.03563351 0.036101412 -0.024942465 0.034310073 -0.027553173
0.033792734 -0.051667158 0.05181218 0.051998954 0.06273921 -0.023345364 0.06798707 -0.032293968
0.024926545 -0.017044859 -0.0050591007 -0.0055953837 -0.061494075 -0.060734462 -0.046454806 0.057101425
0.06725704 -0.010897001 0.018348416 -0.007580794 -0.016232656 0.050268278 -0.0119236205 -0.05862744
-0.021505184 0.022405814 0.016919727 0.03170301 0.034023613 0.07531338 -0.06541513 -0.022781754
-0.00877714 -0.0749367 -0.0081090415 -0.054371987 -0.009189301 -0.01700716 0.02464156 0.013731663
-0.057003357 -0.04830848 -0.009267928 -0.030670615 -0.05803647 0.009761556 0.058486693 -0.008040338
0.003828586 0.024249377 0.04190193 -0.030609839 0.014214265 -0.03458763 -0.035239894 -0.021368565
0.020682765 -0.025050217 -0.007080096 -0.05287834 0.02381878 -0.054179695 0.0118255345 0.043468826
-0.041404977 -0.054407462 -0.0021936677 -0.060250327 0.07966533 0.05594073 0.07984405 0.058652975
0.044750884 0.04555588 -0.022778355 -0.04911525 -0.007524289 -0.030936612 0.0009701049 0.067986
-0.036673073 -0.028608508 -0.034944445 -0.007240119 -0.045824323 0.02507138 -0.018259216 0.014248662
0.043845203 0.032124817 0.03257926 -0.054282125 -0.03985284 0.058841605 0.015154744 0.035190705
0.077269 0.054883648 -0.027193414 0.031518716 0.018341757 0.019498182 -0.051281024 0.06547206
0.041605096 0.047411997 -0.040095743 -0.0619908 0.0052403957 0.070383504 0.023740873 0.006136008
0.029055819 -0.02308324 0.022860162 -0.055146463 -0.0766571 -0.015806511 0.0016777375 -0.054208957
-0.047530487 -0.020998819 0.05738971 0.011228656 -0.040714897 0.019416364 -0.03244035 -0.02341962
-0.07332378 0.044936407 -0.040654376 -0.017081302 -0.042773925 -0.02876192 0.030890957 0.02727454
-0.022568569 0.047858976 0.009189885 -0.010069965 0.045128945 0.023511726 0.005110958 0.053085282

lstm.weight_hh_l0 f4 [800, 200]
00000000: 3635 883d 4632 2abc 4d15 7e3d d48c 96bd
00000010: 7372 fc3c e1de 8bbd 27bd 513d 50f9 f03c
00000020: 8ea3 cd3c f107 0ebd cbea 73bc bc2d 3dbd
00000030: 7125 afbc 7110 c8bc 36cd 24bc 1301 44bc
00000040: a4aa 97bc bc24 fb3c 2e18 5b3d 6830 36bd
00000050: 2a34 8b3d 9996 42bd b252 3d3d 4bdf 9c3c
00000060: 6245 4b3d 2ff8 13bd 4a23 803c aad2 13bc
00000070: 5bbc 38bd bb5b 453d 9a8d d0bb 3c8e f73c
00000080: 3e8d 2f3d fec8 bfbb bf20 66bd deef c43c
00000090: 74da 743d faa1 433d 48ec 68bd 1352 b93c
000000a0: 69d1 843c cb5e aa3c 35fc 83bd b5a9 4e3b
000000b0: 59e8 d53c 6a7d 663d d8bf 4e3b 25b4 35bd
000000c0: 7e3d e1bc 3cda 8b3d e1c1 8ebd 3b5f 7b3d
000000d0: 17a4 16bd 4f7c 51bd e2dd 56bd 039a 3dbc
000000e0: bc6e fabb 815a 683d b915 d9bb 2ad7 4ebd
000000f0: 409a ecbb c652 c9bc a7af 0cbd 619e 04bd
00000100: 550f 33bd 75cd 04bd 3b77 7fbd 1e4d 5b3c
00000110: cd95 323d a591 0d3d c3db 363d 80e3 a1bc
00000120: c782 963d a754 193d 129e 17bd 21d2 85bd
00000130: 1fc9 243b cd79 3abd d4c9 96bd 99ed 923c
00000140: ef9f 953d 7c85 8fbd 0a56 703c c8cf 12bc
00000150: 28ad b33c bd9e 7f3c 538e 7abd 73bd e2bc
00000160: b7aa 6f3c c13a 06bd 65fd fcbc 5fa3 13bb
00000170: afa4 88bd ac1b ae3c 9a44 dc3c 5f32 babc
00000180: d6a4 613c c754 7f3d da3d 393d 4252 033d
00000190: 6372 25bd aaba 7c3d 2685 55bd 8983 64bd
000001a0: 5d6d 763d b46b edbc e1ed 36bc 7ec6 8a3d
000001b0: 9781 7b3d 97bb 213c 6942 b9bc 61e5 2fbc
000001c0: de57 633d fe0f 0e3d be95 7b3d a88e 74bd
000001d0: 2de9 15bd 019a 78bd 68dd 6cbc b8f0 88bd
000001e0: 3392 7c3d b7f5 16bb 7d68 7d3d 19b8 263c
000001f0: fb22 e73a c879 f03c fa67 56bd 33d1 b03c
00000200: 30b6 61bd 7569 283b 30a9 ec3c e3db 783d
00000210: 0d40 223d 936f 743d ab7d c0bb dde7 92bd
00000220: 4e17 b6bc fb8c f93c c7c7 7cbd 4d3e 86bd
00000230: 31db 273d eb44 e13c b1ca 42bd 7a10 5ebd
00000240: c18f 843d 6b15 41bc def5 81bc 66c9 88bd
00000250: d086 7c3b 8020 c73c 2cf7 73bb 403e 93bb
00000260: 4412 993c 0c96 f9ba b96c 613d 416b b3bc
00000270: b05e c9bc 70c9 e8bc d37a 7c3d 6e44 613d
00000280: 96dc 8fbd e03d 853d 9ac2 75bd 9a36 a7bb
00000290: e68c 0b3d 43ee 4dbd e4de 953d 93cc 773c
000002a0: 326e 923d 834f 88bd 3517 e3bc 952e ea3c
000002b0: 0a0b f83c f3f3 96bb 9330 4cbd fbe2 903d
000002c0: 5c4b 0ebd 08a2 2cbd 6454 58bd eb3b fc3c
000002d0: 4d9c f9bb 7e50 2e3d bbc9 423d eb77 5c3d
000002e0: 07a2 8f3c 323e d0bc d1a2 e73c dad9 42bd
000002f0: 6f66 de3c c0da 663c 45da 463d 0c84 193d
00000300: 61b6 37bc bfcd 17bd f90e 5dbd 0dde 713d
00000310: c3a0 993b 0edf 2bbd 7823 5ebd 74de 583c
00000320: 4841 e6bc 0c27 74bc 6fc1 28bc 4378 533d
00000330: 13c1 533b c7e9 34bd 1df8 153d 3713 853d
00000340: 95c3 013d 1962 2dbd fde0 233d b8de ef3c
00000350: cef4 cdbc 6a2b 09bd 30d9 733d 454d cc3a
00000360: 1e26 5f3d 5468 0cbd ff70 5d3d b613 603d
00000370: 8d72 a4bc 65a7 14bd eb2a 913d 9b3e d0bb
00000380: 3fdf e8bc e13e 61bb 2bc7 0b3d db97 8b3d
00000390: 04b0 1b3d 2de8 a5bc aa24 13bd 1678 2b3d
000003a0: 89b2 32bd 4d39 783d 3f39 563c 9e3d c93c
000003b0: f42c 10bc 546d d33c 0d88 933c 0fee 7bba
000003c0: 0a70 803d a44e 5cbd d07f 13bd 49c0 04bd
000003d0: fa2f 7ebd 8909 4ebd d20a 85bd 8abd 743d
000003e0: 5927 06bd 88ed a7bc 908e b1bc 8303 c73c
000003f0: 317d d4bb a054 fcbc 5ae9 883d 1437 26bc
0.06650774 -0.010387963 0.062032033 -0.073510796 0.030816292 -0.0682962 0.05120578 0.029415756
0.025102403 -0.034675542 -0.014887522 -0.046186194 -0.021380158 -0.024421902 -0.010058692 -0.011963147
-0.018513985 0.030657165 0.053489856 -0.044479758 0.06797059 -0.047506902 0.046221443 0.019149443
0.049626715 -0.03612536 0.015641827 -0.009022394 -0.045101505 0.048183184 -0.0063645365 0.03021919
0.04285931 -0.0058528176 -0.056183573 0.024040159 0.059778646 0.047761895 -0.05686596 0.022622144
0.016213136 0.020797154 -0.06444589 0.0031534259 0.026111769 0.056271948 0.0031547453 -0.044361252
-0.027495142 0.06828734 -0.06970573 0.061370116 -0.036777582 -0.05114394 -0.052457698 -0.011572364
-0.007642595 0.056726936 -0.006624904 -0.050498165 -0.0072205365 -0.024575602 -0.034347203 -0.032377604
-0.043715794 -0.0324225 -0.062369566 0.013385085 0.043599892 0.034562726 0.044643175 -0.0197618
0.073491625 0.037434246 -0.037015982 -0.065342195 0.0025144292 -0.045526315 -0.073627144 0.017935561
0.073058955 -0.07007882 0.014668951 -0.008960672 0.021933153 0.015601811 -0.061170887 -0.027678227
0.014628104 -0.032770876 -0.030882547 -0.0022527797 -0.06672036 0.02125343 0.02688818 -0.022729097
0.01377221 0.06233671 0.045225002 0.03206087 -0.04039229 0.061701454 -0.052128933 -0.055789504
0.06016289 -0.02898202 -0.011165113 0.06776141 0.061402883 0.009871385 -0.022614675 -0.010735841
0.05550372 0.03468322 0.061422102 -0.05970636 -0.036599327 -0.060693745 -0.014457084 -0.066865385
0.061662864 -0.002303464 0.061867226 0.010175728 0.0017634326 0.029354945 -0.052345254 0.021584129
-0.05510539 0.0025697623 0.028889269 0.060756575 0.039611865 0.059676718 -0.005874356 -0.07173131
-0.02222791 0.030462733 -0.06171396 -0.06554852 0.04098052 0.027498683 -0.047556583 -0.054214932
0.064727314 -0.011784892 -0.015864309 -0.06679039 0.0038532503 0.02430749 -0.0037226183 -0.0044935048
0.018685468 -0.001904191 0.055035327 -0.021901729 -0.024581283 -0.028416365 0.06164057 0.0549969
-0.07024495 0.06505942 -0.06000004 -0.0051029446 0.034069918 -0.050276052 0.07317904 0.015124458
0.07149924 -0.06655791 -0.027721027 0.028586665 0.030278701 -0.0046067177 -0.04985101 0.07074543
-0.034739837 -0.042146713 -0.052814856 0.03079029 -0.0076175095 0.042557232 0.047555666 0.0538253
0.017533315 -0.025420282 0.02827588 -0.04757104 0.027148454 0.01409024 0.048548 0.037479445
-0.011212916 -0.03706145 -0.053969357 0.059049655 0.0046883537 -0.04196077 -0.054233044 0.013236631
-0.0281073 -0.014901888 -0.010300024 0.051628362 0.0032311126 -0.04416826 0.036613572 0.064978056
0.031680662 -0.04232988 0.040009487 0.029281005 -0.025141146 -0.03348867 0.059533298 0.0015586993
0.05447971 -0.034279183 0.05406284 0.054706298 -0.020074153 -0.036292452 0.07088264 -0.0063551194
-0.028426765 -0.0034369754 0.03412549 0.068160735 0.03800966 -0.020252312 -0.035923637 0.04186257
-0.043627296 0.06060152 0.013075172 0.024565514 -0.00879978 0.025808968 0.01800921 -0.00096103636
0.0627137 -0.053785935 -0.036010563 -0.03240994 -0.062057473 -0.050302062 -0.064962044 0.05975107
-0.03275237 -0.020499006 -0.021674424 0.024293667 -0.0064846505 -0.030802071 0.06685133 -0.010144968

lstm.bias_ih_l0 f4 [800]
00000000: 6ac9 2fbd 7d2c 62bd e9c5 48bc 5018 643d
00000010: 7188 5e3c c9f6 863c e28d c0bc 6675 3c3d
00000020: 9d19 853d 497f 7f3d 3059 3dbd e371 0dbc
00000030: c406 96bd c77d 63bd 1467 2cbd f650 17bd
00000040: d120 1bbd df81 1d3c 5ae7 953d 4caa 6f3d
00000050: 6e5a f73c 98ca a33d ce91 173d 22c9 8abc
00000060: 5658 853d e9be 73bc b588 27bc fb7d 323d
00000070: c0b9 e03c b654 75bd 38c5 213d 5426 ff3a
00000080: 3d51 683d 0040 46bd 0990 713d bf70 9f3c
00000090: 3f54 113d d057 973d dbf9 b53b cb3f 1a3d
000000a0: e943 573d f02b ffbb 659f 93bd 6087 95bd
000000b0: 4592 87bd 667c 86b9 ce27 83bd 8b2e 7dbc
000000c0: 9049 813a e88c cebb 7abe 583d 2197 9b3d
000000d0: 7960 903b 6bfe 5bbd 232c 40bd ebf5 2c3d
000000e0: 14fe 51bd 0848 5bbd 23a4 8abc ebcf 5c3d
000000f0: d95f 52bd f79f 993c 87fc dd3c 08d2 6bbd
00000100: 6f26 563d 7354 e03b b4c3 c73c 8805 a0bc
00000110: 9659 ef3c 5686 953b 35eb fbbc 3a28 9b3c
00000120: a0d9 183d cc42 25bb 0cb8 323d 9467 393d
00000130: 8ab1 41bd 1b87 d03c abb4 2c3d 5780 4cbd
00000140: 5cc4 273c 87b1 1abd d591 d0bb 0af5 6dbd
00000150: 29b2 65bd 6f49 78bd a096 41bd 7373 333d
00000160: bd98 013d 062d 2ebd eacd 973d c71a 213d
00000170: b36d dcbc 228f 5dbd eba1 083d b196 153c
00000180: f132 573d 12bb 56bd a370 493d 617a 0bbd
00000190: 0aae b7bc adc9 f4bc 7fd1 06bd 60cc 07bd
000001a0: 5bbb 92bc f6a9 e1bc 4fa8 82bd f864 77bd
000001b0: 4d03 62bd 2ed1 dabc 0c77 96bc f14c cebc
000001c0: 5fe3 2ebd 9e4d 423c 65aa 903a 2cf6 293d
000001d0: afd0 40bc b1c0 0c3d 95da 843c 6461 09bd
000001e0: 578b 16bd 7ea9 1e3d 8bb8 c5bc a2c3 50bd
000001f0: b27b 433d c37b c2bc aa8c 01bd d1ea 6f3d
00000200: 9ea4 813d 4bc8 483d 1524 513d 0114 43bd
00000210: 37e8 673d c599 ffbc 8547 8c3c 77fd 073d
00000220: ecec 64bd 2429 36bc b5a0 84bd 1537 293d
00000230: 2354 8eb9 8393 12bd 7263 44bd 4681 37bc
00000240: 48b2 1c3d 8a59 e3bc a6d2 803d 720d d1bc
00000250: b738 20bc 5b19 083d 2806 d5bb 3ac3 f7bc
00000260: e837 0f3a f282 3bbc 180c 19b8 5385 b63c
00000270: 7609 943d 5917 a73c 4712 33bd 7201 e93b
00000280: 5190 063d 7549 e63c c543 54bd d5e7 423d
00000290: afc8 6ebd dde5 bb3c 5999 fdbb 890c 81bb
000002a0: ff5c 2b3d b112 77bd 6596 2c3d 96b4 173d
000002b0: 226a 9b3d 77e7 67ba 3d3a 863d 4d92 dcbc
000002c0: 9dff 913c 8ea6 82bc fc06 04bb a9ee 60bd
000002d0: 6207 53bc eba3 9cbc 3d50 cbbc 8fc5 513d
000002e0: 0fd4 53bd be58 843d 4fee 7bbd 2ef0 07bd
000002f0: ce35 193d 0218 02bd ab49 953d 672a ffbc
00000300: 296c 6d3d 23b0 d2bc c3ba b7bc 58bf 1ebc
00000310: 95e0 8dbc 015f a13c 39ee 85bb 8a30 133d
00000320: f438 0b3d 8fe1 89bd 2b16 463b 29c0 8d3c
00000330: cf8a 5cbd c055 263c fb7a a73c 50a8 963b
00000340: 3855 25bd b80c c73c 5cb4 6ebd e24b 5ebd
00000350: fcb9 37bd bf6d 2bbd c529 7cbd 2cc3 a33d
00000360: d10d 683d 2355 c63c 6ab9 00bd 233c 603d
00000370: e63f 463d 0b5e db3c f0b6 373d 87d7 5cbd
00000380: 7286 78bd 772e 8bbd e527 9b3c f175 85bc
00000390: 59a5 23bd 5454 493d 9c73 743b 9f5d 34bb
000003a0: aecb 05bd 06e5 263d ef67 29bd cb01 273d
000003b0: 2113 393d adf7 753d 1411 94bd 72bd 153d
000003c0: 7300 7eba 9f8a 6c3d 6577 53bd 3ae4 54bd
000003d0: 045d 133b ce32 28ba 28ab 8dbd 0b36 34bd
000003e0: 519a 16bc 7f3a 643d b297 76bd 79df 3f3d
000003f0: 9ffe 7abd 5994 103d d6c5 6bbc c973 9d3c
-0.042916693 -0.05521821 -0.012254217 0.05568725 0.013582335 0.016475098 -0.023505155 0.046010397
0.06499026 0.062377248 -0.046227634 -0.00863311 -0.07325509 -0.055539872 -0.04209049 -0.036942445
-0.037873093 0.009613483 0.073195174 0.058512017 0.030194487 0.07997626 0.037004285 -0.01694161
0.06510989 -0.0148770595 -0.010225465 0.043577176 0.027432323 -0.05989524 0.039494723 0.0019466379
0.0567181 -0.04840088 0.058975253 0.019462941 0.035480734 0.07389796 0.0055534667 0.037658494
0.052555 -0.00778722 -0.072081365 -0.07301211 -0.066196956 -0.00025651156 -0.064040765 -0.015452991
0.0009863842 -0.0063034184 0.052916028 0.07597185 0.0044060317 -0.05370943 -0.046917092 0.042226713
-0.0512677 -0.05353549 -0.01692397 0.053909224 -0.05136094 0.018753035 0.027097953 -0.05757335
0.052282747 0.0068460046 0.02438531 -0.019533888 0.029217523 0.004563133 -0.030751804 0.01894008
0.03731692 -0.0025216816 0.043632552 0.045264795 -0.047288455 0.025455048 0.042164486 -0.049927082
0.010239687 -0.03776696 -0.006365041 -0.058095016 -0.05607811 -0.060616907 -0.047262788 0.043811273
0.031639803 -0.042523406 0.07412322 0.039332177 -0.026907777 -0.05409158 0.033357542 0.009130166
0.052538816 -0.052424498 0.049179684 -0.034052256 -0.022421855 -0.029881323 -0.032914635 -0.03315389
-0.017911604 -0.027546864 -0.063797586 -0.060399026 -0.05517893 -0.026711073 -0.018367313 -0.025183173
-0.042697307 0.011859326 0.001103711 0.041494533 -0.011768504 0.034363452 0.01621751 -0.033540145
-0.03675398 0.03873586 -0.024135849 -0.05096782 0.047725387 -0.023740655 -0.03162829 0.058573548
0.06330226 0.04901914 0.0510598 -0.0476265 0.05661794 -0.031201253 0.017123947 0.033200707
-0.05589001 -0.011118207 -0.06475965 0.041312296 -0.00027147037 -0.03578521 -0.0479464 -0.011200255
0.03825596 -0.027752656 0.06290178 -0.025519107 -0.009779147 0.033227306 -0.006500978 -0.030244458
0.0005463348 -0.011444794 -3.6489306e-05 0.02228037 0.07228367 0.020396875 -0.043718603 0.007110768
0.032852475 0.028111199 -0.051822443 0.047584374 -0.058296856 0.022936756 -0.0077392277 -0.003938262
0.041836735 -0.06032056 0.042135615 0.037037455 0.075886026 -0.00088464416 0.06554077 -0.02692523
0.017822081 -0.01594856 -0.0020145765 -0.054915104 -0.012880178 -0.01912113 -0.024818534 0.051213797
-0.051715907 0.06462239 -0.061506566 -0.033188038 0.037404828 -0.031761177 0.07289442 -0.031148149
0.057964478 -0.025718754 -0.022427922 -0.009689175 -0.017319003 0.019698622 -0.0040872362 0.035934962
0.03398986 -0.06732475 0.0030225615 0.017303543 -0.053843316 0.01015228 0.020444384 0.004597701
-0.040364474 0.024298057 -0.058277473 -0.054271586 -0.044855103 -0.04185271 -0.061563272 0.079962105
0.0566538 0.024210518 -0.031426825 0.05474485 0.048400782 0.026778242 0.044852197 -0.05391648
-0.060675092 -0.06795972 0.018939922 -0.01629159 -0.03995261 0.049152687 0.0037300354 -0.0027521623
-0.032664947 0.040745758 -0.041358884 0.040773194 0.04518426 0.060050655 -0.0722982 0.036557622
-0.0009689398 0.057749387 -0.051627535 -0.051975466 0.0022485862 -0.0006416262 -0.06917411 -0.043996852
-0.009192065 0.05571985 -0.06020326 0.04684398 -0.06127798 0.035297725 -0.0143904295 0.01922025

lstm.bias_hh_l0 f4 [800]
00000000: 58c2 4bbc 27e9 3dbb e29d 0ebd 1fb9 703b
00000010: 0b6f 14bd 6bc9 5dbd 9a7a edbc 8e6c 22bb
00000020: 84d2 eabc 4096 4fbc 0f54 60bd 6100 62bb
00000030: 5ecd 69bd 5200 f73c 275f b8bc 135d 2e3d
00000040: e8ca 903d 1706 803c 9990 8e3d 503f 2cbd
00000050: b60a 43bd 54e2 6e3c 3050 1ebd 916d df3c
00000060: 314f 053d 78a7 753d cb95 39bd 63ca 703d
00000070: b1d1 d83c ce06 e7bc 7ed7 d2ba 1f34 2d3d
00000080: 8f44 6b3d 73e5 60bd 637a 3b3d 50f1 343d
00000090: b567 38bd aa63 0b3d 7871 59bd 021d d1bc
000000a0: 19be 903d 16b6 35bd 95bd db3b 763d 6c3d
000000b0: c376 7dbd 4432 7d3b cab9 67bd 30b6 a13d
000000c0: 59dc 943c d0cc cebc 647b 61bd 4e4a e33c
000000d0: e69b 673c ff23 023d 17e0 0c3c 3382 6d3d
000000e0: 9a1b 84bd a846 923d 790c a8bc ab01 bc3c
000000f0: ee39 debc 55a2 44bd 78b0 1e3d 9ca1 853d
00000100: 92d5 4a3d 3b60 34bd 571d ecbc d64e 9c3c
00000110: e316 2ebd 16c5 6ebd 114f 43bd 53ff ec3c
00000120: 5ae6 cabc 0c52 273c e8f4 eb3c bf58 943d
00000130: 2d48 803d b5b8 e73b 13d2 6f3d 98eb 82bd
00000140: 0090 71bc 48c2 083d 852e 44bd c132 65bc
00000150: fd67 dbbc db99 4a3d 71f9 b9bc 946d bebc
00000160: 1d69 1cbc 99c8 483c 415a 69bd c5b9 a3bc
00000170: 87b4 73bd 1a63 ea3c fa6f 67bd 3df8 acbc
00000180: 2049 3ebd 1c22 023c 159f 19bd 9d5c 4fbd
00000190: b139 09bd 2025 213a 89e9 723c 41ce 9a3d
000001a0: 04b9 36bd 910d 613c 85f9 a23c 9e9b ccbc
000001b0: f8ac dabb 4969 623c c2cc 813d 1442 793d
000001c0: 664e 7ebd f49f 183d 2126 a0bc dc1e 1fbd
000001d0: cd37 9b3d d59f 36bd fa92 dcbc 6ad5 4bbc
000001e0: 8141 4ebb 8b81 ec3b c237 723d 6f98 083a
000001f0: 3e11 fd3c 26da 6bbc e807 a43c 7aff 8cbd
00000200: 5e5e 76bc d64b 56bc 42e7 573d 901f 94bd
00000210: 5a8d 8bbc 10ef 4abd f8d2 ee3c 51c5 8cbd
00000220: be74 343d 8fb4 51bd 75a2 633d e481 b5bc
00000230: e2e6 493d 12aa c73c 0257 573d 6745 9a3d
00000240: abea 56bd 9437 6c3d be24 983d 9f17 4c3d
00000250: 2fb2 1dbd a5be b2ba 49fc c83c 7c6f 1a3d
00000260: 9685 a1bd 0d6c 65bd f2e8 4ebd 70fc 7c3d
00000270: c67e 933d 960d 3fbc ada5 73bd f058 84bd
00000280: 8502 8dbd aa4e 19b9 4328 eb3c 3872 5d3d
00000290: 9022 98bc 075f 633d ed07 523d 6f31 bebc
000002a0: ab1e ddbc abb6 503c eadd 5c3d b8a8 97bd
000002b0: f074 7f3d ddcf 0abd 98d1 0cbc 898b d93c
000002c0: a1ef 5d3d cd06 fd3b 4aeb 7bbd 872d 953c
000002d0: b387 393d 89cb 8fbc d6ef ec3c 9d70 b83b
000002e0: b64a 86bd c855 03bd 3b9f 11bd a1c4 37bc
000002f0: 3760 403d 5106 a83c 9cb5 31bc bd04 dd3b
00000300: 721a c839 1ca3 3a3c c417 13bc cd9a 853d
00000310: d306 803d d6c1 66bd d583 98bd f7f5 f93c
00000320: 71d1 67bc 3358 853d d1e4 583d db5a dcbc
00000330: e004 8fbd ef02 303d c52e d3bc d352 eabc
00000340: 02bd 773d 6109 0c3c 6eec 82bc bfe8 e03c
00000350: 5fcc 81bc f0c2 48bd 608e 4cbd 0612 273d
00000360: a5ba 823d 193f 8c3d 5cab 22bd 170d 743d
00000370: 6c3a 143d 3b7d 51bd 7532 5fbd 3653 9fbb
00000380: 5a35 af3c f776 8bbd 4a88 2b3d 8430 903c
00000390: ac81 72bd 1a3e f2bc ac0c 893d 923c 673d
000003a0: 2f7c 8c3d 8779 c63c cc94 2cbd 7487 41bd
000003b0: 0bd3 86bc a5bb 063c 6927 633d 45a5 38bd
000003c0: b1ef eb3c 63bd d3bc 431c fcbc da98 60bd
000003d0: 4f87 06bd cc08 8a3d 1c75 c43c 6d56 42bd
000003e0: 2bcd c5bc fc7d 1bbd 4334 053b 609d d9bb
000003f0: 75f9 d7bc 874a 353d 1f11 99bd 7c6f bd3c
-0.012436472 -0.002897808 -0.034818538 0.0036731435 -0.03623871 -0.054147165 -0.028989125 -0.0024783942
-0.028664835 -0.0126701 -0.054767665 -0.003448509 -0.05708062 0.03015152 -0.02250631 0.04256923
0.07069951 0.015627904 0.069611736 -0.042052567 -0.047617637 0.014580328 -0.03865069 0.027273925
0.032546226 0.059974164 -0.04530887 0.05878676 0.026467176 -0.028201487 -0.001608595 0.042286035
0.05743843 -0.05490632 0.045771014 0.044175446 -0.045020778 0.034030594 -0.053086728 -0.025526527
0.07067508 -0.044363104 0.0067059495 0.0576758 -0.061880838 0.0038634697 -0.056573667 0.07896078
0.018171476 -0.025244147 -0.055049315 0.027745392 0.01413629 0.03177261 0.008598349 0.057985496
-0.06450577 0.07142383 -0.02051376 0.022950014 -0.027127232 -0.048006374 0.038742512 0.06524965
0.049520083 -0.044037085 -0.028822584 0.01908056 -0.042502295 -0.058293425 -0.047682825 0.028930342
-0.024768043 0.010212433 0.028803304 0.072434895 0.062637664 0.0070715793 0.05854995 -0.06392592
-0.014743805 0.033388406 -0.047895927 -0.013989151 -0.026782984 0.049463134 -0.02270195 -0.02324561
-0.009546545 0.012254857 -0.05697084 -0.019986043 -0.059498336 0.028611708 -0.056503274 -0.021114463
-0.046456456 0.007942703 -0.037505228 -0.050625432 -0.033502284 0.00061471947 0.014826187 0.07558871
-0.04461004 0.013736145 0.01989437 -0.024976548 -0.0066734515 0.013819047 0.063378826 0.060854033
-0.062086485 0.03726192 -0.019549431 -0.03884779 0.075790025 -0.04458602 -0.026925553 -0.012441019
-0.003147215 0.007217591 0.059135206 0.00052107027 0.03089201 -0.014395272 0.020023301 -0.06884666
-0.015037147 -0.013079604 0.05271078 -0.072325826 -0.017035175 -0.049544394 0.029153332 -0.068735726
0.044056647 -0.051197585 0.055574853 -0.022156663 0.049292453 0.024373088 0.05257321 0.07532769
-0.05246989 0.05767019 0.07428883 0.049827214 -0.038500007 -0.0013637139 0.024534361 0.037703976
-0.078868076 -0.05601125 -0.050515123 0.06176418 0.072019145 -0.011660954 -0.059484173 -0.06462276
-0.06885246 -0.00014620522 0.028705722 0.054064006 -0.018571168 0.055510547 0.05127709 -0.023216931
-0.026992163 0.012738864 0.05392257 -0.074052274 0.06236738 -0.03388964 -0.008594893 0.026555793
0.054183606 0.007721758 -0.061503686 0.018210186 0.04529543 -0.017553108 0.028922956 0.005628659
-0.06557219 -0.03206423 -0.035552245 -0.011216314 0.046966758 0.020510824 -0.010846522 0.0067449496
0.00038166676 0.011391427 -0.008977834 0.065236665 0.062513016 -0.0563372 -0.0744702 0.030512793
-0.014149056 0.06510963 0.05295259 -0.026898792 -0.06983352 0.042971548 -0.025779137 -0.028603947
0.060482986 0.008547158 -0.01598188 0.027454732 -0.015844522 -0.049014032 -0.049940467 0.040788673
0.06383256 0.068479724 -0.039714202 0.059582796 0.036188528 -0.05114482 -0.05449148 -0.0048622144
0.021387745 -0.068098 0.041878022 0.017601259 -0.059205696 -0.029570628 0.0669187 0.05645425
0.06859624 0.02422787 -0.04213409 -0.04724832 -0.016458055 0.008223449 0.055457506 -0.04507949
0.028800817 -0.025847143 -0.030775195 -0.05483327 -0.032843884 0.06739959 0.023981623 -0.047445703
-0.024145683 -0.037961945 0.002032534 -0.006641075 -0.026364068 0.044260528 -0.07473969 0.023124449

linear.weight f4 [1, 2400]
00000000: c19f 583c ab35 5bbb cf95 cdbb 827a 45bc
00000010: 9784 a43c fc19 58bc 5e2f 92bc 8e77 8d3b
00000020: ac77 91bc 3b49 9abc 3b2e d23b d156 e8ba
00000030: 38fb 48bc 58d2 6a3a a95e a43a 8ea4 253c
00000040: afa9 ff3b 6e2e 2dbb b5bc 0e3b 03c9 9f3c
00000050: e3d6 013a 2d72 4ebc ab41 37bc 47fb 473c
00000060: b5a4 51bc 9efc 583c 7fdf 7d39 9e84 0fbc
00000070: 4c41 b4bc 207c 0dbc d074 153b 907a db3c
00000080: 2bf3 243c 242f d6bb 0d16 803b f4f2 8d3b
00000090: 0de1 6fbc deca dbbc a08b 593b a84a 7c3b
000000a0: 8833 8b3c 6f5c d43b 23ff 553c 396e cebb
000000b0: 9840 843c 6430 21bc 6e56 ad3c 23a0 4ebb
000000c0: 72a7 36bc c9a6 e33c 5822 d639 bca3 913c
000000d0: c798 cfbc fc88 3c3c a5fe 65bc b214 e63b
000000e0: 4345 5e3c 31da f23b e4b6 46bb 35fd d93c
000000f0: 2f82 223c e5c9 94bc aa5d 90bc 0463 e83c
00000100: 51c6 d1bc f30f 2ebb 0140 45bc 2fae e43b
00000110: a750 9c3c 8acb d8bb 051a 9e3c 27db bb3c
00000120: 5235 153c 8eae f63b 1fa6 813c ba51 923c
00000130: a9cb dbbb e1d8 7a3b b642 2abc a7e4 54bc
00000140: 288f a6bc 9087 9b3c a2f4 7c3b e5f1 cc3b
00000150: c868 1abc e031 943c c3fd 993c a300 6bbb
00000160: 9c4f c4bc 5253 5d3c d523 cabc ffb3 f83a
00000170: 9b09 943c 22fc bcbc d740 a83b 1678 d5bc
00000180: 750d 4abb 0b80 2fbc f4ea d13c 4c63 673c
00000190: a8c9 48bc 216a 22bc 7243 d0bc 4f53 c93c
000001a0: 9d7e b23b 52c2 b23c 08f5 aa3b 2ea0 c1bc
000001b0: 16e9 93bb e962 3bb8 1287 f93a eca5 bcbc
000001c0: 8249 723c 3b25 d0bc 3cae bfbb bbc7 c8bc
000001d0: e600 d73a b61a 173c 52f6 dcbc dcc6 49bc
000001e0: 25a4 12bc 7701 883a 4f7e 52bc d43d a3bc
000001f0: 57c4 ea3b f758 2c3c 8c0a 483c 6027 a73b
00000200: 27d4 ebbb 4b46 c0bb b66c 603b 9109 c03a
00000210: 2cfd b83b 8293 cf3b 0a6c 8abc 0c32 3bba
00000220: 7f87 023b 2ae1 2a3c 34ad 35bc cb91 3bb9
00000230: e73f 683c 4f2c 423c ebbd 8fbb 17aa 5bbb
00000240: 770f 03bc 49c1 a63c 8115 373c f211 a13a
00000250: 0d58 323b eaaf c03c 0ab4 a7bc ae8b a23c
00000260: a902 043c 1e1a b4bb 966d 6bbc b52a a43b
00000270: b232 36bc 9311 c1b9 d2f7 c93c fda2 d9bc
00000280: 15dc 583c 752e 9dba 1dab 55b8 aace 4fbc
00000290: 01c0 b83c cd8c 803c 3def 39ba 88b1 793c
000002a0: 2c47 acbc 2d4a bb3b 71ca 363c 7379 fe3b
000002b0: 7060 59bc 7d1c b9bc ef49 a3bb c68a 1b3c
000002c0: 0c17 893c de21 9bbb e05a 933b a3d8 a839
000002d0: ff29 b7bc 578a 77bb 5734 6d3a 4c09 bc3b
000002e0: 0a6f 30bc 35cf 07bb b61d ba3b f986 be3b
000002f0: d00b 063c 86da 283c 6ab5 e6b9 17fe 61bc
00000300: 7ba5 94bc b8c8 3f3b e1e8 113b a511 953c
00000310: 5bec 4a3c e8d9 b83c 9ad9 2bbc 271c ff3a
00000320: 036c 843b 5955 413c a326 39bc f008 78bb
00000330: 85bc bcb9 c254 cd3c fc92 66bb f804 2e3b
00000340: 9559 4ebc e211 79bc c894 e4bb 30ad fdbb
00000350: 806e 25bc 1929 803c 7dcd 2b3a ab7b b6bc
00000360: b1f5 46ba c190 803b 8cae ba3c e729 05bc
00000370: b39b db3b cb89 503c edbd 09bc d199 61bc
00000380: 4c90 b3bc 1cff 98bc 6f3d dbbb dc4b 9bbc
00000390: 1502 1a3c 1da7 a03c cedf 15bc 759f e0bb
000003a0: d4b4 3a3c 93fe 9dba 55a6 973c 80a0 f1bb
000003b0: 8212 8e3c ddbb 98bc 5642 d43b 5ca7 bfba
000003c0: d7c2 dfbb 496b f23b 5327 5d3c d1d3 5a39
000003d0: d1a6 0b3b d2dd 7fbc 0e3c 90bc 8157 333c
000003e0: c0de ff38 42fe b1bc 59a3 a43b 5eed 6cbb
000003f0: 1772 333b 4342 523b c70c 79bc 5198 1fbc
0.013221682 -0.0033448737 -0.006273962 -0.012053134 0.020082755 -0.013189789 -0.017844852 0.0043172305
-0.01775726 -0.018833747 0.0064142025 -0.0017726069 -0.0122669265 0.0008957735 0.0012540418 0.010110034
0.0078022103 -0.002642538 0.0021779959 0.01950503 0.000495298 -0.012600464 -0.01118509 0.012205905
-0.012795617 0.013243822 0.00024211219 -0.008759646 -0.022003792 -0.008635551 0.0022805221 0.02679184
0.010067741 -0.0065363813 0.0039088787 0.004331941 -0.014641059 -0.026830133 0.0033194795 0.0038496647
0.016992345 0.0064807455 0.013061318 -0.0062997607 0.016144082 -0.009838197 0.021159377 -0.0031528554
-0.0111483205 0.02778949 0.0004084285 0.01777827 -0.025341405 0.011507269 -0.014037763 0.00702151
0.013566318 0.0074112643 -0.0030321414 0.026609996 0.0099187335 -0.018162677 -0.017622788 0.028367527
-0.02560726 -0.00265598 -0.0120391855 0.006978772 0.019081427 -0.0066160606 0.019299516 0.022931648
0.009106951 0.0075281328 0.015826283 0.017861236 -0.006707628 0.0038276243 -0.010391882 -0.012993968
-0.020331934 0.01898554 0.003859796 0.006254422 -0.009424396 0.018090189 0.01879776 -0.0035858534
-0.023963742 0.013508635 -0.02467529 0.0018974541 0.018070986 -0.023069445 0.0051346826 -0.026058238
-0.0030830775 -0.01071168 0.02562473 0.014122795 -0.01225511 -0.009912998 -0.025422785 0.024575857
0.0054472224 0.021821175 0.0052171983 -0.02363595 -0.00451387 -4.467639e-05 0.0019037446 -0.023028336
0.014788033 -0.025408378 -0.005849628 -0.024509301 0.0016403466 0.009222677 -0.026972923 -0.012315478
-0.008950268 0.0010376413 -0.012847497 -0.019926943 0.007164519 0.010519258 0.012209546 0.0051011294
-0.0071969214 -0.0058677546 0.0034244484 0.0014651289 0.005645415 0.006334723 -0.01689722 -0.00071409415
0.0019917188 0.01042966 -0.011088658 -0.00017888022 0.014175392 0.011851384 -0.0043866537 -0.003351813
-0.007999293 0.020355837 0.0111745605 0.0012288673 0.0027213127 0.023521382 -0.020471592 0.019841995
0.008057275 -0.0054962775 -0.014369389 0.005009974 -0.011120485 -0.00036824922 0.024654303 -0.026566977
0.013236065 -0.0011991995 -5.094252e-05 -0.01268355 0.022552492 0.015692139 -0.0007092839 0.015240081
-0.021030031 0.0057156296 0.011156664 0.0077659427 -0.013267621 -0.022596592 -0.004983179 0.009493535
0.016734622 -0.004734262 0.004496917 0.00032204864 -0.022358892 -0.0037771666 0.0009048632 0.005738413
-0.010768661 -0.002072287 0.0056798114 0.00581443 0.008181527 0.010306006 -0.00044004183 -0.01379349
-0.018145313 0.0029263925 0.002226405 0.01819689 0.012385453 0.022564843 -0.010488892 0.0019463346
0.0040411963 0.011800134 -0.011300716 -0.0037847124 -0.00035998612 0.02506483 -0.0035182824 0.0026553255
-0.0125946 -0.0152020175 -0.006975744 -0.007741593 -0.010097146 0.015644597 0.00065537525 -0.022275766
-0.00075897115 0.003923506 0.022788309 -0.008127666 0.0067019104 0.012728165 -0.008407098 -0.013769583
-0.021919392 -0.018676333 -0.006690673 -0.018957071 0.00939991 0.019610936 -0.0091475975 -0.0068549463
0.011395652 -0.0012054018 0.01851193 -0.0073738694 0.01734281 -0.018644268 0.0064776344 -0.001462202
-0.0068286466 0.0073980433 0.013498145 0.00020869008 0.0021309147 -0.015616851 -0.017606761 0.0109461555
0.00012200838 -0.021727685 0.0050243554 -0.0036152224 0.0027381235 0.0032082952 -0.0152008 -0.009740905
