trainedModel/singleChartModel.pt (torch, 958602 bytes, 5 tensors)

lstm.weight_ih_l0 f4 [800, 96]
00000000: 17e9 0b3f f64e a43d 3830 3cbe b3dd c53d
00000010: b03a fd3b 7938 a33d cfb4 b0bd dd59 a4bc
00000020: 4f38 543d c734 113d 7c3a 903d b9d8 6e3d
00000030: f3e2 203d 565f 17be 4546 523c e5ce d13d
00000040: 0aca 3cbe 7905 a43d 6d3c 043d d86c 73bd
00000050: 6a2a 4c3e cd20 953d 3cbb ec3d 4ddb d33d
00000060: e90f bd3e de71 0d3e 9341 aabc a1e8 c33d
00000070: 2b78 253e 64a6 0abc d055 83bc f34f 26be
00000080: f9c3 c93c e486 d2bd 5c38 3abd 62cf 263c
00000090: 0c2d 553d 6e0d 403d 1850 25bd 22b2 81bd
000000a0: a257 c93c 3467 003d 8580 733d 9f0b 8dbd
000000b0: 6fc5 b8bc d527 10bd af4f c8bc 029c 773d
000000c0: 5bac 9b3e 65b2 333e 6a81 0ebe 796b e53d
000000d0: d79e ffbc 5493 ca3c baae 913c f451 fd3d
000000e0: dd8b 0e3e 9983 ae3d be92 253e 9d0d 72be
000000f0: 8178 383e 9c5f b9bd fde6 4e3c ec7d 883d
00000100: e69d febd 9e0d 853d 1622 7c3e 5ae6 1a3e
00000110: 6367 2d3e b836 a1be b9a0 bd3c 62cb 1abd
00000120: 6683 643c 5205 92bd 3478 4b3d dce5 433e
00000130: ca2b 103e 0cae 4dbd bbff fd3d 7696 c63d
00000140: 04f9 bbbe 405a 43bd 2f97 2c3e b023 c33e
00000150: d31b aabd 9f77 123e a989 cf3c daca 1d3e
00000160: d49c e2bd 00cb 4b3d 2f23 30be f4bf a63e
00000170: b018 8a3d c8ea 0abe 9f44 d43c d841 ef3d
00000180: d14e bf3e 18e2 8a3c cf37 99be 9b2f 2dbe
00000190: c298 513c 9916 243c 3b06 a03d 3558 093d
000001a0: 6c4b 4c3c 787a 9d3d 82b6 17bd 819a 6cbc
000001b0: 9aec cd3d f32f 0b3c 571b fb3d b875 a3bd
000001c0: e80b 99bc d978 bbb7 1048 083e 0630 0abc
000001d0: 3bec 99bc 1e20 d3bb 6f70 e33c 4409 69bd
000001e0: 5d8e 8e3d e44f 04bd b31a e83d ff16 903d
000001f0: f858 4a3e d010 fdbc c6dd b73c c1f0 143e
00000200: 2d3e 81bc 8215 9f3c 4385 aabd b571 c9bc
00000210: 4b64 90bd 5e21 773d 0052 88bc 540b 48bc
00000220: 1339 cabc e408 673c 693c 9b3c 8d62 453d
00000230: 6160 4c3d c360 80bd 6246 8abc 4c66 33be
00000240: e917 7b3e 2d8c edbd d506 d7bb 52d4 e9bd
00000250: 8e2d 0cbe bd70 5dbd 0afd 2c3e 3904 fd3c
00000260: 8242 553c 5353 373e 0dd3 1ebe b59a 243e
00000270: 88fe 24be 4667 89bd 60d7 d9bd 339e a63a
00000280: cff4 c2bd 1748 cdbd 1fd1 533d 8d40 2c3e
00000290: c4a7 9e3e 4a30 babd 98ec e73d 2469 083e
000002a0: 04e7 063e f3c0 32bd afc4 ffbc 035a 6e3e
000002b0: 0eda 033e f533 87bd 5941 243e 65c4 bebd
000002c0: 631d 88bd edd0 953d 3316 4e3e 63d8 9cbe
000002d0: 8a66 9cbe 1a1d 873e 3a26 93be 5ab9 b33e
000002e0: ae35 e63b 3880 67bc ac2c 8cba 3937 eabd
000002f0: fe99 5a3d 19fa 81be e357 94bd 661f 2f3e
00000300: 1934 20bd 7617 dd3d 3349 ca3b f7c9 813a
00000310: 2439 5fbd 38c4 533c 23e2 ab3e 844b 7e3d
00000320: 5672 de3c 4435 7a3d cd21 ab3d 5ed8 a43d
00000330: f60a 7b3d 6f80 953d 9a69 753d 3820 8f3d
00000340: 9b76 833d c44f 123e e5ed ec3d 2fef 73bd
00000350: fab6 fc3c 7fd2 163c 6ae4 dc3e 921d 383e
00000360: 8da2 693d 2a7f 413e 1485 f93e 208c b93d
00000370: 3f0c f3bd 3916 82be acf2 92bb 09e5 28be
00000380: 6f34 b1bd c0a0 82bd c40d 89bc c30f 363d
00000390: 0801 72bd f201 423d c173 c2bb 9d4e 153d
000003a0: 182a 34bd 5b07 16bd 1276 363d 9f65 953c
000003b0: 08f4 8e3b ddd7 563c 969f 693c effc f1be
000003c0: db47 a83d cb47 c73d 3422 6d3e a800 a2bd
000003d0: bb8a be3d b5ad cfbd ba6f 91be ca9c da3e
000003e0: 8851 54bd df78 4cbe f1a4 623e 3ec5 72be
000003f0: 6904 6d3e fd6a 1fbe 5482 b93e 82d1 78bd
0.5465254 0.08022873 -0.18377769 0.096614264 0.0077279434 0.07969756 -0.086282365 -0.020062381
0.051811513 0.035450723 0.07042405 0.05831215 0.039278936 -0.14782462 0.012834136 0.1024454
-0.18436447 0.08008856 0.03228419 -0.059429973 0.19938055 0.07281647 0.115591496 0.10344563
0.369262 0.13812968 -0.020783221 0.09565855 0.16159122 -0.008462522 -0.01603213 -0.16241436
0.02462958 -0.102796346 -0.045463905 0.01018128 0.052044913 0.046887808 -0.040359586 -0.06332804
0.02457792 0.031348422 0.059448738 -0.06886982 -0.022555081 -0.035194237 -0.024452059 0.060451515
0.30404934 0.17548521 -0.13916555 0.112021394 -0.03120367 0.024728455 0.017783511 0.12369147
0.13920541 0.08521194 0.16169259 -0.23638006 0.18014719 -0.09051439 0.012628314 0.06664643
-0.124324605 0.06496738 0.24622378 0.15126935 0.1693397 -0.3148706 0.023147928 -0.037791617
0.013947343 -0.07129921 0.04967518 0.19130653 0.14079204 -0.050214812 0.12402292 0.09696667
-0.3671342 -0.04769349 0.16854547 0.38113165 -0.08306088 0.14303444 0.025334196 0.15409413
-0.11065069 0.049754143 -0.17200921 0.32568324 0.0674299 -0.13566124 0.025911627 0.116824806
0.3736482 0.016953513 -0.2992539 -0.16912691 0.012792768 0.010015153 0.07813688 0.033531386
0.012469154 0.07689375 -0.037039287 -0.0144411335 0.10054894 0.008495319 0.12261074 -0.079814374
-0.018682435 -2.2348411e-05 0.1330874 -0.008434301 -0.018789401 -0.0064430377 0.027763573 -0.056893602
0.069607474 -0.032302752 0.113332175 0.07035636 0.19760501 -0.030891806 0.022444617 0.14544965
-0.015776718 0.019419435 -0.08326199 -0.024590353 -0.07050379 0.060334556 -0.016640663 -0.012209732
-0.024685418 0.014101241 0.018949704 0.04818969 0.0498966 -0.06268456 -0.016879264 -0.17519492
0.2452084 -0.11599002 -0.0065620937 -0.1141745 -0.13689253 -0.054062594 0.16893402 0.030885803
0.013016345 0.1790288 -0.15510197 0.16074641 -0.16112721 -0.06709151 -0.10636783 0.0012711942
-0.0951935 -0.10023516 0.051713105 0.16821499 0.3098737 -0.09091242 0.113244236 0.13321358
0.13174063 -0.043641042 -0.031221716 0.23276524 0.1287615 -0.06601707 0.16040553 -0.09314803
-0.0664623 0.0731524 0.20125656 -0.3063384 -0.3054698 0.2638939 -0.28740102 0.3510235
0.007025442 -0.014129691 -0.0010694466 -0.11436314 0.053369515 -0.25386122 -0.072433256 0.17101821
-0.039112184 0.107954904 0.006173277 0.0009902109 -0.054497853 0.0129252 0.33570966 0.062083736
0.027154129 0.061085954 0.08356056 0.08049081 0.06128975 0.072998874 0.059915163 0.06988567
0.064191066 0.1428824 0.11568812 -0.059554275 0.030848969 0.00920546 0.43143016 0.1798003
0.057039786 0.18896165 0.48734343 0.0905993 -0.1186757 -0.2540758 -0.004484495 -0.1649362
-0.08652579 -0.06378317 -0.016730197 0.044448625 -0.059083015 0.047365136 -0.005934209 0.036451925
-0.043985456 -0.03662811 0.044546194 0.018236933 0.004362587 0.013112989 0.01425924 -0.47263286
0.0821683 0.0973049 0.23157579 -0.079102814 0.093038045 -0.10140554 -0.28405553 0.42697746
-0.051835567 -0.19967984 0.22133233 -0.23708054 0.23146214 -0.15568157 0.36232245 -0.060746677

lstm.weight_hh_l0 f4 [800, 200]
00000000: b3e7 9e3d e824 67be ea9b 76bc bbcd 2c3c
00000010: 3b91 4dbe ab47 373c 1d0c 363d 2a91 8cbd
00000020: 3dfd 313c 0b64 3e3d c54d 003d d60a 87bc
00000030: 744f fb3d 9eea 273d 6826 f5bc b1f4 80bd
00000040: 3216 113e ac62 fe3c 1866 6abd d464 573e
00000050: 05d4 b1bd 0949 5b3e e3c2 253e 0967 823e
00000060: 8424 c3bd 30ca 303d ce96 b83d c441 153e
00000070: 3396 c1bb d36b a2bd e826 83bd 5e8d fdbd
00000080: 2d47 f23b ef1a bf3d 4ce0 da3c d318 323d
00000090: 33bd f1bd 6eaa b7bd 5bee 3dbd 23d7 053e
000000a0: c6fe d43d a087 553d c568 f9bc 58ca fdbd
000000b0: 802f 98bd ef3a 86bd 9bbc 4ebd 71bb dfbd
000000c0: dc82 66bd 3392 c13d 3a8c e13d 70ed 5ebd
000000d0: 2140 e53d c6c8 ee3d 769d c03d b8d2 183e
000000e0: 03f7 91bd ea4f 5e3e 49fe 9f3e 1f09 193e
000000f0: 8023 083e a30a a2bd 26e7 8dbb e0d0 4a3d
00000100: 47d7 6b3d 1fa4 c83d cea5 523d 4e45 8b3d
00000110: 738b d6bb d896 2b3e cb37 5f3d 96ca d83c
00000120: 2423 a23d 9577 0e3e 494c b2bd a759 9b3d
00000130: 5a5b 08be 8727 fa3c c486 393d cbb0 a8bd
00000140: 7e5d 8bbd 6729 cfbd c33a 893d ac01 8fbc
00000150: d654 f53d 0403 39bb 8c61 f93d ecb0 16be
00000160: 9e79 973d 384a e83d 5597 5cbd a49d ee3d
00000170: 0da8 e4bc 7e23 debd 09bc 68bd 6eec 383d
00000180: 8471 28be 29f9 1e3e ecb0 b7bc 8736 08be
00000190: adae 28be bcac 6a3c 9b6c 32bd 3c8e 773c
000001a0: f423 043d 7211 9b3d 7960 5c3d 06cf 03be
000001b0: 3bb2 03bc ca74 ac3d 32ea c3bc e3bf 563e
000001c0: 376e 16bd c075 853d 2759 c1bd 3df9 4fbd
000001d0: e361 c03c 0236 acbd 42d1 193e c8a6 26bd
000001e0: 01e6 83bd 129b 1ebe 41f7 fd3c 0124 0b3e
000001f0: 12cf c8bd 787c d53d f3c4 f13d 62a7 023e
00000200: 6145 90bd 1ad3 9abc 3863 423e 94d5 073c
00000210: acb4 6e3e c08f ca3c 0b3f 7b3d b9af 86bc
00000220: 5128 0d3e 424f d8bc ca5d 7a3d 2c52 133d
00000230: c36d 8c3d ad47 9dbd 7053 50bd 8846 a53d
00000240: 75f9 ed3d 59cd c23d c8ec 9e3d 4232 9e3c
00000250: 4896 24ba a95f beba 9818 bb3d a125 23be
00000260: a51b 293b bf79 5a3d 5ef3 e03c 60b8 463d
00000270: bda0 a4bc 2e79 a93d 4b7c 1cbe 8990 7cbd
00000280: b81c c9bd 2132 9c3d bd73 29bd 22ee b2bd
00000290: 46dd e4bc e739 10bd 1b8c 143d aed1 763d
000002a0: 95a0 d43a 153c 00bd fd45 68be ba19 b4bb
000002b0: d199 913d 669b de3d dd9c 393d 29fc adbc
000002c0: 4045 a8bb 1734 1dbd 3bfa 7cbd 0d77 60bd
000002d0: 39b3 21bd 2f9a 283d 3f49 01bd 0817 efbc
000002e0: 5d48 1bbe 31be 21bd 01dd 013e fb37 1e3e
000002f0: f15a 5a3d 9c5e 11bd 3722 2f3d 0aaa 3d3d
00000300: cfbe 30bd 35a1 013e 6a7f 84bd 3fd4 c33d
00000310: 14c2 16bd 2ad2 87bd e2c5 5fbe 01b4 fdbb
00000320: a2af c83d d8af 9bbe fd60 8cbe 4a9f 25bd
00000330: e5a6 0ebe 7877 b53b 5671 963d a0b4 83bc
00000340: ebd2 33be 030a a6bd 58f4 543e 7150 d7bd
00000350: 410c 35bd 3018 ab3c 0a61 60bd c60f 16be
00000360: f054 01bc 61ed af3d cd75 8abc f29f a8bd
00000370: a89b c0bc 8c90 ea3d c364 023e b753 8b3e
00000380: 96e8 d23d 00a9 443d 409e e3bc 1aa4 133d
00000390: c6c9 483e ad1c 303d 1f3f 36bc 4356 80be
000003a0: f329 373d 54eb fd3d 4c17 983e c3c0 2b3e
000003b0: 300a 3cbd 561e 67be 4cac 58bd d081 e73d
000003c0: 95f8 a3bc 5693 c63d bebe 12be cd2c 4b3e
000003d0: 1d26 c0bd 1c30 8bbd 2ca3 2f3e 7ae3 3abe
000003e0: e9d5 0fbe 835a 523e dbf3 30be 16a4 91bd
000003f0: ca12 52bd 3bf2 0fbd b767 aabd 60cc 5b3d
0.07759037 -0.22572672 -0.015051821 0.010547097 -0.20074932 0.011186521 0.044445146 -0.06863625
0.010863599 0.046482127 0.031324167 -0.01648466 0.12271014 0.040995233 -0.02992554 -0.06296671
0.14168623 0.03105291 -0.05722627 0.21034557 -0.08683018 0.2141458 0.16187625 0.25469235
-0.09528449 0.04316157 0.09013139 0.14575869 -0.0059077977 -0.07930722 -0.06403905 -0.12380479
0.0073937387 0.09331309 0.026718281 0.043480705 -0.11803665 -0.08968054 -0.04636989 0.1307035
0.10400157 0.052131295 -0.030445466 -0.1239211 -0.07430935 -0.065542094 -0.050472837 -0.109244235
-0.05627714 0.094517134 0.11013074 -0.054425657 0.11193872 0.11659388 0.09405033 0.14924133
-0.07127192 0.21710172 0.31248692 0.14944886 0.13294792 -0.07912185 -0.0043305336 0.049515605
0.05757835 0.097969286 0.051427655 0.06800328 -0.0065473854 0.16756761 0.054496568 0.026463788
0.07916859 0.13912804 -0.087059565 0.07585459 -0.13316098 0.030536426 0.04529454 -0.082368456
-0.068049416 -0.10115319 0.06700661 -0.017456852 0.11979072 -0.0028230557 0.12176809 -0.14715928
0.073962435 0.11342281 -0.05385526 0.11651161 -0.027912164 -0.10846613 -0.05681995 0.045147352
-0.16449553 0.15524735 -0.02242323 -0.1330205 -0.16472884 0.01432341 -0.043560605 0.015109595
0.03226085 0.07571687 0.05380294 -0.12871942 -0.008038099 0.08420713 -0.023915384 0.20971636
-0.036726203 0.065166 -0.094408326 -0.0507748 0.023484176 -0.08408739 0.15021232 -0.0406864
-0.06440354 -0.15488842 0.031001689 0.13587953 -0.098051205 0.10424131 0.11805143 0.12759164
-0.07044483 -0.01889949 0.18983161 0.008290667 0.23311108 0.024726748 0.06133942 -0.016441213
0.1378491 -0.02640498 0.0611246 0.035967037 0.06856873 -0.07679687 -0.050860822 0.080700934
0.11619846 0.09511823 0.07760006 0.019311074 -0.0006278497 -0.0014524359 0.0913555 -0.15932323
0.002580383 0.053338762 0.027459797 0.048515677 -0.020096177 0.08275066 -0.15281789 -0.061661277
-0.09819931 0.07626749 -0.041370142 -0.087368265 -0.027937543 -0.03521147 0.036266427 0.06025856
0.0016222174 -0.0313073 -0.22682948 -0.005496231 0.07109416 0.10869484 0.045315612 -0.021238403
-0.0051352084 -0.038379755 -0.061762076 -0.054801036 -0.03947756 0.041162666 -0.031563994 -0.029185787
-0.15164323 -0.03948802 0.12681963 0.15451042 0.053309385 -0.035490617 0.04275724 0.04630474
-0.04315072 0.12659152 -0.06469615 0.09561967 -0.03680618 -0.066318825 -0.2185283 -0.0077424054
0.09799124 -0.30407596 -0.27417746 -0.040435113 -0.13930853 0.0055379234 0.07345836 -0.01607734
-0.17560928 -0.08107378 0.20796335 -0.1051339 -0.04420114 0.020885557 -0.054780044 -0.14654455
-0.007893786 0.08590198 -0.016901875 -0.08233632 -0.023511723 0.114533514 0.1273375 0.27212307
0.102982685 0.048012733 -0.02778542 0.03604517 0.1960822 0.042996097 -0.011123448 -0.25065812
0.04471774 0.12398401 0.29705274 0.16772752 -0.045908153 -0.22570166 -0.05289869 0.11304057
-0.020015994 0.09696071 -0.14330575 0.19841309 -0.093822695 -0.067962855 0.17152089 -0.18250838
-0.14046444 0.2054234 -0.17280523 -0.07111375 -0.05128745 -0.03514312 -0.08320563 0.053661704

lstm.bias_ih_l0 f4 [800]
00000000: ba37 f3bb 9b36 9f3d 7221 44bc ee78 d0ba
00000010: d5cf 193d 17c0 d93d 8095 ea3d 6e3e 8a3c
00000020: 28f2 863b be74 b73c c77e cf3d cb3d 383d
00000030: 5c0a f23c 4b0f 54bd 28ab da3d 1985 f23d
00000040: d7c4 90bc 35ae c13d 001c 5dbd 90f0 c93d
00000050: f34f 5e3d bdcc f93b e8a8 043e e438 923d
00000060: 4d94 ba3d 01d9 373e 3044 c2bc dc25 633d
00000070: 545f ee3d df84 2b3d ceb5 8c3d 835e d23c
00000080: 7bef 803e acc0 d5bc 9a66 143d 7c98 d93c
00000090: 1053 453d 7ade dc3c 8747 093e ffe4 433d
000000a0: fda6 c73d ae37 f73c 775e b33d a4a9 a43d
000000b0: 1044 5b3d 8d85 393d a9d3 1c3e e0ac 28bd
000000c0: 3861 6c3d 7429 ae3d 974a 13bc c302 d43b
000000d0: 241f bd3c d11a 063e e3db d93d 18e4 a2ba
000000e0: d39f 953d 1f77 933d 7a3e 3f3e 4d0d 103e
000000f0: 0817 2d3d 4522 993d b3f2 bc3d d2f1 bbbb
00000100: 1a57 74bd 43ee 2d3d 0575 8b3d e8e3 9e3d
00000110: 2a59 dc3d 021a 6e3d aca4 b73d 3858 0b3c
00000120: 7b07 2f3d 0a47 efbc c1e6 aabc 4881 293c
00000130: 244e f73d 332b 203e b9af 523d 4896 cd3c
00000140: 7bab fbbc 310b bb3c 30a8 0a3e 2fb7 013e
00000150: 0b0b 933d 0f18 a53c 7fd0 ae3d fca3 8bb9
00000160: 12dd b13d 95b2 a73d 0316 c83d 350e a53c
00000170: 43a1 99bd 289c 113e e078 d63c 334d 7e3d
00000180: 8a48 a93d 8aef 653d 25f1 0abd 61e1 883d
00000190: abdb 023e 5937 07bd a034 12bd 878b 333e
000001a0: 5775 78bd 565a 21bd 9273 3bbc 9545 d03c
000001b0: 2b51 8d3c 209c 1c3e ed42 3c3b beb9 2f3e
000001c0: fa56 1bbc 6c96 e73c 9678 303e e20f 33bd
000001d0: 61d7 543d ae20 a0bc 9ca0 d83c 3b9a d93d
000001e0: 3e05 9d3d 9406 303c ae1d 3c3d 0070 853d
000001f0: 6342 8d3d d19d 713d cffe 823d 7f1d 8e3d
00000200: 068d e93b a915 1b3e aa66 f13d f88b 933c
00000210: 9fcc a03c a052 16bd def7 863d fd1e 7c3d
00000220: b4ae dc3d 17c3 d53b 8ff8 7b3c 9c0c 963d
00000230: 606c ea3c 96ce 7b3d a459 a53d de00 873d
00000240: 7966 8a3d 829e e93c ec9a 2f3e 4553 423d
00000250: c082 943d 7a2f f83d 7238 d63d a8dc 273d
00000260: 67c8 4ebd 7b0b 0c3d 82f4 f63d 7cd9 f43d
00000270: d62e ec3d 22cf 9f3c dbde 31bd 3fbd b83d
00000280: d2a7 003c 1810 873d 8188 f83d 23f0 7a3d
00000290: 6567 8e3d 881c 103e a80d 7dbd 8613 bb3d
000002a0: 7fb6 d63d 67a4 323e 881c 803c ccf4 ca3c
000002b0: 7adb 963d 523a 6d3d 36cd f13d 8b9f 8bbb
000002c0: f617 813d 531d d63c 4a44 2f3d d3f6 073d
000002d0: dc00 b63c 7feb 713d 7f19 793c 5dc6 293d
000002e0: abe2 513c 6c68 993d 9eb6 233d a131 0d3c
000002f0: 1ef4 f13d 73de 003e c432 9cbc 44ff e93d
00000300: 4453 9ebc 835c 153d 71a4 463d dd20 81bc
00000310: d0cf 6e3c 7a12 cb3b 1151 8b3d 89e2 bcbc
00000320: ae70 babc 0000 8a3d 0b8a 8f3d 7b64 143d
00000330: 0a03 1a3d b149 b73b ad32 133d 31bb 91bc
00000340: 4a3f 263c e77a 1dbd 8ab1 00bd 3ac4 33bb
00000350: ea53 1bbd 3022 32bd 4165 92bb 7334 a43c
00000360: 1b28 a73c 9ee6 413d 766b 3d3c 429b 4d3d
00000370: 1e02 35bb dbc1 d0bc bb9d b33d 67ea 2f3c
00000380: a385 973d 4eed 5e3d 164e 64bd dd46 4f3d
00000390: 60e8 8dbd 79a9 343d 98a8 07bd f2a7 8ebc
000003a0: 2869 073e e0e5 213c 597f 1bbd 1001 b03d
000003b0: a612 973d 5a40 8ebd c61d ebbd bc9f d83c
000003c0: c7f5 02bd 9b2c 91bc 5500 533c f313 33bc
000003d0: 4a41 543b 7c9d 6bbc 37e4 b5bd 5fd1 933d
000003e0: 72c3 d03d 5987 2c3c 6ed7 543d 029c 3f3d
000003f0: b8d3 6bbc d192 42bd 9523 963d 9134 2abd
-0.0074224146 0.07774087 -0.011970865 -0.001590518 0.03755172 0.10632341 0.11454296 0.016875472
0.0041182227 0.022394534 0.10131603 0.044980805 0.029545955 -0.051772397 0.10677177 0.118417926
-0.017671986 0.094570555 -0.05398178 0.09860337 0.054275464 0.0076232837 0.12955058 0.07139757
0.091103174 0.17953874 -0.023714155 0.055456027 0.11639276 0.041874763 0.06870614 0.025679832
0.2518271 -0.02609285 0.03623066 0.026561968 0.048174918 0.026961554 0.13406192 0.04782581
0.09748647 0.030177917 0.08758252 0.08040169 0.053531706 0.04529338 0.15315117 -0.04118049
0.057709903 0.08504 -0.008989952 0.006470056 0.023086138 0.13096167 0.10637643 -0.0012427596
0.07305875 0.07200455 0.18676177 0.14067574 0.042258292 0.074772395 0.09225979 -0.0057356143
-0.05965338 0.042463552 0.06809429 0.077583134 0.10759194 0.05813027 0.089669555 0.00850492
0.042731743 -0.029208679 -0.020861985 0.010345764 0.12075451 0.15641479 0.051437113 0.025096074
-0.030721417 0.022832485 0.13540721 0.12667535 0.07179841 0.020153074 0.08535861 -0.00026634324
0.08684744 0.08188359 0.097698234 0.020148376 -0.07501461 0.14219725 0.026180685 0.06208534
0.08265789 0.056136645 -0.03392138 0.066836126 0.12779109 -0.033011768 -0.03569472 0.17533694
-0.06065878 -0.03939279 -0.011441128 0.025423804 0.017250618 0.15293932 0.0028726414 0.17160699
-0.009481186 0.028269969 0.172335 -0.04371632 0.051963214 -0.019546833 0.026443772 0.1062512
0.076670155 0.010743756 0.045926742 0.06515503 0.06897428 0.058988396 0.06396257 0.0693922
0.007127407 0.15144981 0.1178716 0.018011078 0.019628821 -0.03669989 0.06590246 0.06155299
0.107755095 0.0065235007 0.015379085 0.07326624 0.02861613 0.061476313 0.08073738 0.06591962
0.06757826 0.028517965 0.17148942 0.047442693 0.07251501 0.121184304 0.10459985 0.04098192
-0.050484087 0.034190636 0.12058355 0.11955544 0.11532371 0.019507948 -0.043425422 0.09020471
0.0078525115 0.065948665 0.12135411 0.06126417 0.06953315 0.14073384 -0.0617806 0.09134583
0.10484027 0.17445527 0.015638605 0.024774931 0.073660806 0.057916947 0.11806719 -0.0042609624
0.06303398 0.02613703 0.042789735 0.033194374 0.022217207 0.059062477 0.015203833 0.04144894
0.0128103895 0.0749062 0.03996908 0.0086177895 0.1181414 0.12584858 -0.019067176 0.11425641
-0.019326814 0.03646518 0.048496667 -0.01576274 0.014575914 0.006197271 0.068025716 -0.02305724
-0.022758808 0.06738281 0.070087515 0.03622864 0.037600555 0.0055935015 0.035937 -0.017789455
0.010146925 -0.038447287 -0.031419314 -0.0027430193 -0.037921824 -0.043489635 -0.004467637 0.020044541
0.020404866 0.047339074 0.011561265 0.050196894 -0.002761967 -0.025483062 0.08770319 0.010737038
0.07398536 0.05442553 -0.05573853 0.05060469 -0.06929088 0.044106934 -0.033119768 -0.017414067
0.13223708 0.009881467 -0.037963245 0.08593953 0.07376604 -0.06945868 -0.11480288 0.026443355
-0.031972673 -0.017721465 0.012878497 -0.010930049 0.0032387548 -0.014380809 -0.08881419 0.07217669
0.10193528 0.010530316 0.051963262 0.04677964 -0.014393739 -0.047503296 0.073310055 -0.041554037

lstm.bias_hh_l0 f4 [800]
00000000: 2167 34bc ae22 ff3c e6d3 093b 39db 4fbc
00000010: 4833 debc 1b09 723d 138b 233a 5eb9 883d
00000020: 30e1 313d b4dd 9bbd b34d 6b3d 6093 11bd
00000030: d40d d73b eb01 aebc 5fc5 b03d d070 d23d
00000040: c730 16bc 3591 623b dfab 66bd b201 b23d
00000050: 30b4 853d e4de 51bd e5fd 093e 7182 dd3c
00000060: f076 013c 6cc3 6e3d 79ec 653d 2dc2 1bbd
00000070: d1cc dd3d 2244 1e3e d1e7 9fbc eacf bb3d
00000080: 7e54 573e 8178 33bc fe6f edbc 53b6 4e3d
00000090: 65df 3f3c d123 1dbd 7895 653d cfc4 ba3d
000000a0: d6b1 253e 95bf 9d3c 809f 8d3d 7fb2 8cb9
000000b0: cbde 653d 8420 e43b 6af4 1e3e 6399 3f3d
000000c0: 2986 ae3d fcb3 95ba 1d59 57bd fe09 713d
000000d0: 1362 9f3b d2bf 0a3e 5e48 393d 6754 ca3d
000000e0: db59 7dbc 276e 823d 15d1 373e 897b 413e
000000f0: c157 643d 5f10 943d 633d 9f3d 4b30 0ebc
00000100: 1cc3 003d 9805 cf3d ab96 1e3c 003f 943d
00000110: 9b3d 4bbc 1288 1f3d d433 5b3c e40f c83d
00000120: 5140 3f3d 540e 463d 94f4 ce3c 6b9d d73d
00000130: a4b2 913d 0061 1e3e 0e56 33bd 2371 a63b
00000140: 8c29 503d fbda 193d c52c 293e 778d 0a3e
00000150: 1f8b ca3d 9a98 54bd c0d8 043e 2b75 d73c
00000160: eb41 14bd 2aca d43d 9c52 c33d 0010 9e3d
00000170: 5ec0 c43b c95c 143e b33e d23d 64d4 0abd
00000180: 664b 823d fba4 173d 7e79 1d3d 35a6 293c
00000190: 50f2 033e 4642 a83c 7e30 a43d bc05 1a3e
000001a0: 77a4 223d b7b9 1c3d dc11 d43c a923 f23c
000001b0: 1edb 043d 82d9 ee3d 3484 c23d 7713 503e
000001c0: 21a7 fa3b 5016 a03d 9646 bc3d 9954 c93c
000001d0: 4ecf 22bd dfc0 e0bb fa2f abb9 f628 773d
000001e0: 97f8 033e 22f1 983d b3c7 543d 4394 4ebc
000001f0: 978e 1ebd 51d7 d43d a698 b83c 9216 a93d
00000200: 5696 7fbc 12ad b63d ce5f 0a3e a875 76bd
00000210: 1f8a 22bd 49d5 16bd 4fa1 84bd eb2a bc3d
00000220: 045d e53c 6e28 d0bb aa61 83bb d6d3 81bd
00000230: 22f1 023e 1ab9 653d 4b94 f93c 845f f4bc
00000240: 421e 7a3d 04b8 cd3d 3f5c 473e 56b6 d83d
00000250: 0236 f33c ac2d d73d 41c8 0d3e 38a4 073e
00000260: 697f 61bb 82ca a53d 7faa 843c 7cae ba3d
00000270: 160d b33c d654 be3d 6524 c53c c699 793d
00000280: fc64 f8ba 14d2 5abc 83aa 023e 333f de3c
00000290: a7e0 1c3c 6386 883d d2fd 7dbb 6706 2c3d
000002a0: 2c32 0d3d a9a3 b33d 7a52 fa3c 6b82 253d
000002b0: ad9b b83d d652 f63b db68 5b3d a0c4 9f3d
000002c0: ba18 28bd 7c93 593d e28d 0e3e f56f 363d
000002d0: 6d55 913d b866 bc3d 8f43 3f3c d155 a53d
000002e0: 51bf 9fbc d367 abba f6f9 17bc de1e 573d
000002f0: 922d a03d 3212 8a3d eb33 bdbb 1e85 073e
00000300: 4510 a0bc fd56 bdbc c534 6f3d cf43 3a3d
00000310: 050a ce3c 91a3 ac3d ec7d 49bd 0193 973d
00000320: 3b1f bf3d f706 8bbb 2abf 3dbd 525e 723d
00000330: 441f 28bc 3a09 de3d 4214 013e b941 82bd
00000340: fcdc 0abc 5880 84bd 9d6c bb3c e411 c6bb
00000350: 5616 4b3d 05d4 6bbd 69b0 59bd d3e9 1d3c
00000360: 3fb9 09bc b0db 02bd eee2 573d bf25 bc3c
00000370: 216a 723c 73ef 8cbc 60b0 e23c 832d f33b
00000380: d552 e03d 4986 b23d 4144 cdbc 55b6 bf3b
00000390: 9d03 823c 49da 8bbd efef 2abd b2b7 6d3d
000003a0: b98f d93d 111a 84bc bd72 083d 3a01 9cbb
000003b0: 3869 be3b f9d4 84bd 6c46 8ebd 09b7 94bb
000003c0: 093e b23c 77c2 98bd 7138 00bd befe aebd
000003d0: 22b0 d53c e94d 903c 1c9a 4a3c 4b23 0e3d
000003e0: ec2f 4bbc a234 6dbc 0851 4d3d 0048 e33c
000003f0: 1815 cf3b f42c 97bd 69dc 703d 2f2e b7bc
-0.011010916 0.031144466 0.0021030842 -0.012686544 -0.027124062 0.059090715 0.000623868 0.06675981
0.043427646 -0.07610646 0.057447147 -0.03554094 0.0065629277 -0.021241149 0.086313955 0.102754235
-0.009166903 0.0034571413 -0.056316253 0.086917296 0.06528509 -0.051237956 0.1347576 0.027039738
0.007901892 0.058291838 0.05613372 -0.038026977 0.10830081 0.15455678 -0.019519718 0.09170516
0.21028325 -0.010954023 -0.028984066 0.050466847 0.011710976 -0.038364235 0.056050748 0.091195695
0.1618112 0.019256392 0.06915188 -0.0002683587 0.056120675 0.006961884 0.15522924 0.04677714
0.08521683 -0.0011421437 -0.05257522 0.05884742 0.0048639863 0.13549736 0.04523503 0.0987938
-0.015463318 0.06368666 0.17950852 0.18894781 0.05574775 0.07229685 0.077753805 -0.008678506
0.03143607 0.10108489 0.009679477 0.07238579 -0.012404825 0.038948126 0.013379056 0.09768656
0.046692196 0.048353508 0.025263108 0.10528072 0.07114151 0.1546669 -0.04378324 0.005079405
0.050820872 0.03756235 0.16520984 0.13530527 0.098898165 -0.051903345 0.12973309 0.026300987
-0.036195677 0.10390122 0.09537241 0.077178955 0.0060043773 0.1448852 0.10265865 -0.033893958
0.06362037 0.037022572 0.038445942 0.010354568 0.12885404 0.020539414 0.08017062 0.1504125
0.039707627 0.03826305 0.025887422 0.02955802 0.03243553 0.1166258 0.09497872 0.20319925
0.007649318 0.07816756 0.09193151 0.024576472 -0.039748482 -0.0068589295 -0.00032651407 0.060341798
0.12887798 0.074678674 0.05194826 -0.012608591 -0.038710203 0.10392631 0.022533726 0.08256258
-0.015599808 0.08919729 0.13513109 -0.0601708 -0.039682504 -0.0368245 -0.0647608 0.091878735
0.027998455 -0.006352476 -0.004009445 -0.063392326 0.12787297 0.05608473 0.03046622 -0.029830702
0.061064012 0.10044864 0.19468783 0.10581653 0.029688839 0.10506758 0.13845922 0.13246238
-0.0034408218 0.08095266 0.01619458 0.091153115 0.021856826 0.09293525 0.024065206 0.060937665
-0.0018950994 -0.013355751 0.12760358 0.027129745 0.009575046 0.06666257 -0.0038756025 0.041998293
0.034471676 0.0877145 0.030556906 0.04040758 0.09014068 0.007517199 0.053566795 0.07801175
-0.041039206 0.053119168 0.13921311 0.044540364 0.07096372 0.091992795 0.011673822 0.08073009
-0.019500406 -0.0013077207 -0.009275904 0.05251967 0.07821192 0.06741752 -0.0057740114 0.13234374
-0.019539008 -0.023112768 0.058399934 0.045474824 0.025151262 0.08429635 -0.049192354 0.07401086
0.093321286 -0.0042427736 -0.046324886 0.059171982 -0.010261361 0.108416036 0.12605384 -0.06360192
-0.008475538 -0.06469792 0.02287894 -0.006044613 0.049581848 -0.057575244 -0.053146753 0.009638268
-0.0084059825 -0.03194779 0.05270665 0.022967217 0.014795811 -0.017204022 0.027671993 0.007421197
0.10953299 0.08717019 -0.02505696 0.005850593 0.015870864 -0.06828744 -0.041732725 0.058036514
0.10623116 -0.01612571 0.033312548 -0.0047608884 0.005810883 -0.06485934 -0.06947026 -0.004538421
0.021758096 -0.07458966 -0.031303827 -0.08544682 0.026084963 0.017615275 0.012365844 0.034701627
-0.012401562 -0.014477881 0.050126106 0.027744293 0.0063196532 -0.07381621 0.05880395 -0.02236089

linear.weight f4 [1, 800]
00000000: ff2b 543c b08a e53c 2459 5a3d 3de9 f6bb
00000010: 4b43 c6bc bea3 33bb 82ab 4e3d 8eca fb3c
00000020: eaf0 c4bc 8de6 53bb 2a50 ddba a2f8 4b3c
00000030: bcae c13c 89ed e1bc ec47 51bc 8b30 aabc
00000040: cca3 993c a8f9 d53a bacf cabc 8d77 19bd
00000050: 256e 4dbd ca25 e83b 7759 01bd 6ebd a53b
00000060: d3b3 153d f46a 80bc 9386 5bbb 504b f83c
00000070: c32e 26bd ef84 bdbc b4c6 64bc fc93 663c
00000080: d4de abbc 4082 1dbe 5514 d1bc dafb f4bb
00000090: bc9a 12bd b6f6 ecba ee21 4f3d 6175 99bc
000000a0: 0fc7 c3bc 4652 833d e9e7 d93c fa69 52bc
000000b0: e662 00bd 5295 213d ff26 0e3d 5966 69bc
000000c0: 9f86 043d 3e75 213d 52f2 723c a813 2d3d
000000d0: 91b2 9c3c 8a9d 0c3d a905 f9bb 5a0c 313d
000000e0: 5fb0 f9bc 2759 2ebc 0ea0 dabd 5f45 633d
000000f0: 05ff 673b ae05 3b3c 9030 b5bd 9cd4 26bd
00000100: 25ff 2dbd c430 12bd dbcf ab3d 53b8 bcbd
00000110: 8185 d6bc 4856 fa3b cc15 a13c 12db 2e3d
00000120: 26ce 9fbb f55d 283d 7f94 043d 73ca 9d3c
00000130: 5254 193b 536d 9c3b 9ea5 c4bc 3c1c 5ebd
00000140: a272 5bbd 175f 3f3c 5bb5 a93b 9db3 883d
00000150: 4ce4 1b3d 611e e93b fd88 163d 4d69 d0bc
00000160: 4d31 2dbc e93a bd3a 619c 87bd 6918 9abd
00000170: aa8f c43c 2580 d2bd 3ad5 973b 7e7f ad3c
00000180: 20a7 823c bd09 b73c aaca ccbc 188c cabc
00000190: 6c85 6a3d be80 03bd c569 d6bb 941b 96bc
000001a0: f125 093d 945e 1b3d d2f4 2f3c 03ea 74bc
000001b0: d53f 493d 9b3d 40bc 7d51 66bd a1ef 62bc
000001c0: c764 69bc 08be c8bc 78c5 9a3c d27c 0cbd
000001d0: 4c57 6d3d 8209 3bbd be81 d6bc d1ef 0f3c
000001e0: fee1 c0bc f9e0 89bd 1446 78bd b1a9 82bd
000001f0: 72e1 11bd ec93 95bb f41f 563c 5a44 d6bc
00000200: 4ba7 573d f83e 82bc 0b9f a5bc 33b9 1f3c
00000210: 1806 dc3c 5213 85bc 8188 27bd b738 b43c
00000220: a950 06bc 603a 39bd 8bbf 8a3c c6b1 343d
00000230: fcad 8bbd f444 3c3c 6ba8 88bc e64f 49bd
00000240: af95 cd3d 9363 11bd f034 1cbd 695f a53c
00000250: 47ad 6c3c 458f f6bb 220c 153c 5a78 363b
00000260: 6eac a8ba 6072 84bd f102 60bc 10ff 883d
00000270: 404e 4e3d 0a54 8dbd 8c1c 50bd 3bda f83b
00000280: 7332 69bc f015 063d 3436 04bd 1e24 43bb
00000290: 9cb9 10bd a821 843b f73b f3bc 3f65 533d
000002a0: 14a8 47bd 1e80 7e3c e0ca 28bd 66a6 b33d
000002b0: 42a9 ad3c 7a9f 79bd c6d2 a63c 87a1 f93c
000002c0: 656a e03c 75d6 a2bb 4ddc e1bc 3f47 68bd
000002d0: f745 0d3d 9fbe 4fbc 4f8c 8abd 3eb5 9ebd
000002e0: 6d62 43bd 150a 873d 2e09 143d f50f 903d
000002f0: f12d d6bb 1323 0b3d 1fec eabd ba7e c83c
00000300: febc 1dbd e341 1f3d 187f 9c3d 5767 3b3d
00000310: da1b 1f3a 1edc c6bd 572b 85bc baa5 8c3c
00000320: f3ee 4e3d 948c e63c 93b2 cbbd 9402 5cbd
00000330: 2222 46bd 321b a2bd 561a 5c3c 7ecf f53d
00000340: 95e6 963e 022e 753d 4e45 33bd 0a2b c23d
00000350: fc03 58bd 4986 42bd fedc b63b aee7 4cbc
00000360: 3f00 663d 23e9 ff3d 4816 4a3d 6ad0 33bd
00000370: 09dd 4c3d f9f5 bb3d b82e 0a3e fc67 f0bb
00000380: a820 023e ba5a b13d dc06 96bd bf9c 33be
00000390: c450 a33d 254f 0b3d e4af 6cbd fe50 e7bd
000003a0: 5451 823d 52b3 2bbe 9ec2 963d 7a11 16be
000003b0: 2b9d 4dbd 6e59 c3bd da2f a03d 5423 dc3d
000003c0: 3afd 0bbe 6388 7d3d 75f6 1ebd 350e 9fbd
000003d0: cb94 c83d a204 1d3d 478b 6cbd ab2a 6bbe
000003e0: 7ad9 80bd f0ee 9e3d 66db 87bd 1460 d3bc
000003f0: 59b0 ca3c 3601 74bd 1d5f 9d3c d226 493e
0.012949943 0.028020233 0.053307667 -0.0075351284 -0.02420201 -0.002741083 0.05045653 0.030736234
-0.024040658 -0.0032333464 -0.0016884853 0.012449415 0.02364289 -0.027579086 -0.012773495 -0.0207751
0.018754862 0.0016325014 -0.024757255 -0.037467528 -0.05015387 0.007084583 -0.03157946 0.005057982
0.036548447 -0.015676 -0.003349696 0.03030935 -0.04057194 -0.023134677 -0.01396339 0.014073368
-0.020980276 -0.15381718 -0.02552239 -0.007476312 -0.035792097 -0.0018078897 0.050569467 -0.018732728
-0.02389863 0.06412177 0.026599841 -0.01284265 -0.031344317 0.039449044 0.03470516 -0.014245593
0.032354947 0.03941845 0.0148282815 0.042255074 0.019128116 0.03432993 -0.0075995517 0.04322467
-0.030479608 -0.010641373 -0.10675059 0.05548608 0.0035399806 0.011414928 -0.08847153 -0.040730104
-0.042479653 -0.035691038 0.08389255 -0.092148446 -0.026186706 0.00763968 0.019663714 0.04268939
-0.0048768697 0.04110523 0.03236818 0.019261574 0.0023396206 0.0047737746 -0.024004754 -0.054226145
-0.05357612 0.011680386 0.00517909 0.066748835 0.038059518 0.007114217 0.036751736 -0.025440836
-0.010570836 0.0014437112 -0.06621624 -0.07524187 0.023994286 -0.10278348 0.004633573 0.021178957
0.015948832 0.02234351 -0.024998982 -0.024725005 0.057256147 -0.0321052 -0.0065433704 -0.018323697
0.03348345 0.037931994 0.010739522 -0.014948371 0.04913314 -0.011733438 -0.056230057 -0.013851077
-0.014245219 -0.024504676 0.018892989 -0.034298725 0.05794458 -0.045663364 -0.026184913 0.008785204
-0.023545261 -0.06732363 -0.060613707 -0.06380022 -0.035615392 -0.004564753 0.013069142 -0.02615564
0.052649777 -0.015899166 -0.02021744 0.009748745 0.026858374 -0.016244564 -0.040901665 0.0219997
-0.008197942 -0.045221686 0.016937038 0.04411485 -0.06820294 0.011491049 -0.01668187 -0.049148463
0.100383155 -0.035495352 -0.038136423 0.020187097 0.014445609 -0.0075244033 0.009097131 0.0027842731
-0.0012868771 -0.06467128 -0.013672576 0.06689274 0.050367594 -0.06900795 -0.050808474 0.0075943745
-0.014233219 0.032735765 -0.032278255 -0.0029776166 -0.03533326 0.0040323325 -0.02969168 0.051610228
-0.048744276 0.015533475 -0.0412091 0.08771972 0.021198872 -0.060943104 0.020364176 0.03047253
0.027394483 -0.004969413 -0.027570868 -0.05670857 0.03449055 -0.012679725 -0.06765043 -0.07749413
-0.047701288 0.0659372 0.036141567 0.070342936 -0.0065362384 0.033968996 -0.11470818 0.02447449
-0.038510315 0.038881194 0.07641429 0.04575285 0.0006069519 -0.09709953 -0.016256018 0.017168868
0.05052085 0.028143205 -0.0994617 -0.053713396 -0.048372395 -0.07915343 0.013434013 0.120024666
0.29472795 0.05985833 -0.043767266 0.09480865 -0.052738175 -0.047491346 0.0055805435 -0.012506409
0.05615258 0.12495639 0.049337655 -0.04389993 0.050015483 0.09177775 0.13494384 -0.0073366147
0.1270777 0.08659883 -0.07325527 -0.17540263 0.07974389 0.034011025 -0.05778493 -0.11294745
0.06363168 -0.16767624 0.07361339 -0.14655104 -0.050198715 -0.09538542 0.07821627 0.10748926
-0.13670817 0.061897647 -0.03880926 -0.07766382 0.09794005 0.038334496 -0.057750013 -0.22965495
-0.0629148 0.077604175 -0.06633644 -0.02580265 0.024742292 -0.059571467 0.019210393 0.19643715
